…
ly if it does not exist\ndataset_dir = './data/barhill'\nif not os.path.exists(dataset_dir):\n    kaggle.api.dataset_download_files('mshahoyi/barhills-processed', path='./data', unzip=True)\n    print(\"Dataset downloaded and unzipped.\")\nelse:\n    print(\"Dataset already exists. Skipping download.\")\n\nDataset already exists. Skipping download.\n# Load the pretrained MegaDescriptor model\nmodel_name = 'hf-hub:BVRA/MegaDescriptor-T-224'\nmodel = timm.create_model(model_name, num_classes=0, pretrained=True).to(device)\nmodel.eval()\n\nSwinTransformer(\n  (patch_embed): PatchEmbed(\n    (proj): Conv2d(3, 96, kernel_size=(4, 4), stride=(4, 4))\n    (norm): LayerNorm((96,), eps=1e-05, elementwise_affine=True)\n  )\n  (layers): Sequential(\n    (0): SwinTransformerStage(\n      (downsample): Identity()\n      (blocks): Sequential(\n        (0): SwinTransformerBlock(\n          (norm1): LayerNorm((96,), eps=1e-05, elementwise_affine=True)\n          (attn): WindowAttention(\n            (qkv): Linear(in_features=96, out_features=288, bias=True)\n            (attn_drop): Dropout(p=0.0, inplace=False)\n            (proj): Linear(in_features=96, out_features=96, bias=True)\n            (proj_drop): Dropout(p=0.0, inplace=False)\n            (softmax): Softmax(dim=-1)\n          )\n          (drop_path1): Identity()\n          (norm2): LayerNorm((96,), eps=1e-05, elementwise_affine=True)\n          (mlp): Mlp(\n            (fc1): Linear(in_features=96, out_features=384, bias=True)\n            (act): GELU(approximate='none')\n            (drop1): Dropout(p=0.0, inplace=False)\n            (norm): Identity()\n            (fc2): Linear(in_features=384, out_features=96, bias=True)\n            (drop2): Dropout(p=0.0, inplace=False)\n          )\n          (drop_path2): Identity()\n        )\n        (1): SwinTransformerBlock(\n          (norm1): LayerNorm((96,), eps=1e-05, elementwise_affine=True)\n          (attn): WindowAttention(\n            (qkv): Linear(in_features=96, out_features=288, bias=True)\n            (attn_drop): Dropout(p=0.0, inplace=False)\n            (proj): Linear(in_features=96, out_features=96, bias=True)\n            (proj_drop): Dropout(p=0.0, inplace=False)\n            (softmax): Softmax(dim=-1)\n          )\n          (drop_path1): DropPath(drop_prob=0.009)\n          (norm2): LayerNorm((96,), eps=1e-05, elementwise_affine=True)\n          (mlp): Mlp(\n            (fc1): Linear(in_features=96, out_features=384, bias=True)\n            (act): GELU(approximate='none')\n            (drop1): Dropout(p=0.0, inplace=False)\n            (norm): Identity()\n            (fc2): Linear(in_features=384, out_features=96, bias=True)\n            (drop2): Dropout(p=0.0, inplace=False)\n          )\n          (drop_path2): DropPath(drop_prob=0.009)\n        )\n      )\n    )\n    (1): SwinTransformerStage(\n      (downsample): PatchMerging(\n        (norm): LayerNorm((384,), eps=1e-05, elementwise_affine=True)\n        (reduction): Linear(in_features=384, out_features=192, bias=False)\n      )\n      (blocks): Sequential(\n        (0): SwinTransformerBlock(\n          (norm1): LayerNorm((192,), eps=1e-05, elementwise_affine=True)\n          (attn): WindowAttention(\n            (qkv): Linear(in_features=192, out_features=576, bias=True)\n            (attn_drop): Dropout(p=0.0, inplace=False)\n            (proj): Linear(in_features=192, out_features=192, bias=True)\n            (proj_drop): Dropout(p=0.0, inplace=False)\n            (softmax): Softmax(dim=-1)\n          )\n          (drop_path1): DropPath(drop_prob=0.018)\n          (norm2): LayerNorm((192,), eps=1e-05, elementwise_affine=True)\n          (mlp): Mlp(\n            (fc1): Linear(in_features=192, out_features=768, bias=True)\n            (act): GELU(approximate='none')\n            (drop1): Dropout(p=0.0, inplace=False)\n            (norm): Identity()\n            (fc2): Linear(in_features=768, out_features=192, bias=True)\n            (drop2): Dropout(p=0.0, inplace=False)\n          )\n          (drop_path2): DropPath(drop_prob=0.018)\n        )\n        (1): SwinTransformerBlock(\n          (norm1): LayerNorm((192,), eps=1e-05, elementwise_affine=True)\n          (attn): WindowAttention(\n            (qkv): Linear(in_features=192, out_features=576, bias=True)\n            (attn_drop): Dropout(p=0.0, inplace=False)\n            (proj): Linear(in_features=192, out_features=192, bias=True)\n            (proj_drop): Dropout(p=0.0, inplace=False)\n            (softmax): Softmax(dim=-1)\n          )\n          (drop_path1): DropPath(drop_prob=0.027)\n          (norm2): LayerNorm((192,), eps=1e-05, elementwise_affine=True)\n          (mlp): Mlp(\n            (fc1): Linear(in_features=192, out_features=768, bias=True)\n            (act): GELU(approximate='none')\n            (drop1): Dropout(p=0.0, inplace=False)\n            (norm): Identity()\n            (fc2): Linear(in_features=768, out_features=192, bias=True)\n            (drop2): Dropout(p=0.0, inplace=False)\n          )\n          (drop_path2): DropPath(drop_prob=0.027)\n        )\n      )\n    )\n    (2): SwinTransformerStage(\n      (downsample): PatchMerging(\n        (norm): LayerNorm((768,), eps=1e-05, elementwise_affine=True)\n        (reduction): Linear(in_features=768, out_features=384, bias=False)\n      )\n      (blocks): Sequential(\n        (0): SwinTransformerBlock(\n          (norm1): LayerNorm((384,), eps=1e-05, elementwise_affine=True)\n          (attn): WindowAttention(\n            (qkv): Linear(in_features=384, out_features=1152, bias=True)\n            (attn_drop): Dropout(p=0.0, inplace=False)\n            (proj): Linear(in_features=384, out_features=384, bias=True)\n            (proj_drop): Dropout(p=0.0, inplace=False)\n            (softmax): Softmax(dim=-1)\n          )\n          (drop_path1): DropPath(drop_prob=0.036)\n          (norm2): LayerNorm((384,), eps=1e-05, elementwise_affine=True)\n          (mlp): Mlp(\n            (fc1): Linear(in_features=384, out_features=1536, bias=True)\n            (act): GELU(approximate='none')\n            (drop1): Dropout(p=0.0, inplace=False)\n            (norm): Identity()\n            (fc2): Linear(in_features=1536, out_features=384, bias=True)\n            (drop2): Dropout(p=0.0, inplace=False)\n          )\n          (drop_path2): DropPath(drop_prob=0.036)\n        )\n        (1): SwinTransformerBlock(\n          (norm1): LayerNorm((384,), eps=1e-05, elementwise_affine=True)\n          (attn): WindowAttention(\n            (qkv): Linear(in_features=384, out_features=1152, bias=True)\n            (attn_drop): Dropout(p=0.0, inplace=False)\n            (proj): Linear(in_features=384, out_features=384, bias=True)\n            (proj_drop): Dropout(p=0.0, inplace=False)\n            (softmax): Softmax(dim=-1)\n          )\n          (drop_path1): DropPath(drop_prob=0.045)\n          (norm2): LayerNorm((384,), eps=1e-05, elementwise_affine=True)\n          (mlp): Mlp(\n            (fc1): Linear(in_features=384, out_features=1536, bias=True)\n            (act): GELU(approximate='none')\n            (drop1): Dropout(p=0.0, inplace=False)\n            (norm): Identity()\n            (fc2): Linear(in_features=1536, out_features=384, bias=True)\n            (drop2): Dropout(p=0.0, inplace=False)\n          )\n          (drop_path2): DropPath(drop_prob=0.045)\n        )\n        (2): SwinTransformerBlock(\n          (norm1): LayerNorm((384,), eps=1e-05, elementwise_affine=True)\n          (attn): WindowAttention(\n            (qkv): Linear(in_features=384, out_features=1152, bias=True)\n            (attn_drop): Dropout(p=0.0, inplace=False)\n            (proj): Linear(in_features=384, out_features=384, bias=True)\n            (proj_drop): Dropout(p=0.0, inplace=False)\n            (softmax): Softmax(dim=-1)\n          )\n          (drop_path1): DropPath(drop_prob=0.055)\n          (norm2): LayerNorm((384,), eps=1e-05, elementwise_affine=True)\n          (mlp): Mlp(\n            (fc1): Linear(in_features=384, out_features=1536, bias=True)\n            (act): GELU(approximate='none')\n            (drop1): Dropout(p=0.0, inplace=False)\n            (norm): Identity()\n            (fc2): Linear(in_features=1536, out_features=384, bias=True)\n            (drop2): Dropout(p=0.0, inplace=False)\n          )\n          (drop_path2): DropPath(drop_prob=0.055)\n        )\n        (3): SwinTransformerBlock(\n          (norm1): LayerNorm((384,), eps=1e-05, elementwise_affine=True)\n          (attn): WindowAttention(\n            (qkv): Linear(in_features=384, out_features=1152, bias=True)\n            (attn_drop): Dropout(p=0.0, inplace=False)\n            (proj): Linear(in_features=384, out_features=384, bias=True)\n            (proj_drop): Dropout(p=0.0, inplace=False)\n            (softmax): Softmax(dim=-1)\n          )\n          (drop_path1): DropPath(drop_prob=0.064)\n          (norm2): LayerNorm((384,), eps=1e-05, elementwise_affine=True)\n          (mlp): Mlp(\n            (fc1): Linear(in_features=384, out_features=1536, bias=True)\n            (act): GELU(approximate='none')\n            (drop1): Dropout(p=0.0, inplace=False)\n            (norm): Identity()\n            (fc2): Linear(in_features=1536, out_features=384, bias=True)\n            (drop2): Dropout(p=0.0, inplace=False)\n          )\n          (drop_path2): DropPath(drop_prob=0.064)\n        )\n        (4): SwinTransformerBlock(\n          (norm1): LayerNorm((384,), eps=1e-05, elementwise_affine=True)\n          (attn): WindowAttention(\n            (qkv): Linear(in_features=384, out_features=1152, bias=True)\n            (attn_drop): Dropout(p=0.0, inplace=False)\n            (proj): Linear(in_features=384, out_features=384, bias=True)\n            (proj_drop): Dropout(p=0.0, inplace=False)\n            (softmax): Softmax(dim=-1)\n          )\n          (drop_path1): DropPath(drop_prob=0.073)\n          (norm2): LayerNorm((384,), eps=1e-05, elementwise_affine=True)\n          (mlp): Mlp(\n            (fc1): Linear(in_features=384, out_features=1536, bias=True)\n            (act): GELU(approximate='none')\n            (drop1): Dropout(p=0.0, inplace=False)\n            (norm): Identity()\n            (fc2): Linear(in_features=1536, out_features=384, bias=True)\n            (drop2): Dropout(p=0.0, inplace=False)\n          )\n          (drop_path2): DropPath(drop_prob=0.073)\n        )\n        (5): SwinTransformerBlock(\n          (norm1): LayerNorm((384,), eps=1e-05, elementwise_affine=True)\n          (attn): WindowAttention(\n            (qkv): Linear(in_features=384, out_features=1152, bias=True)\n            (attn_drop): Dropout(p=0.0, inplace=False)\n            (proj): Linear(in_features=384, out_features=384, bias=True)\n            (proj_drop): Dropout(p=0.0, inplace=False)\n            (softmax): Softmax(dim=-1)\n          )\n          (drop_path1): DropPath(drop_prob=0.082)\n          (norm2): LayerNorm((384,), eps=1e-05, elementwise_affine=True)\n          (mlp): Mlp(\n            (fc1): Linear(in_features=384, out_features=1536, bias=True)\n            (act): GELU(approximate='none')\n            (drop1): Dropout(p=0.0, inplace=False)\n            (norm): Identity()\n            (fc2): Linear(in_features=1536, out_features=384, bias=True)\n            (drop2): Dropout(p=0.0, inplace=False)\n          )\n          (drop_path2): DropPath(drop_prob=0.082)\n        )\n      )\n    )\n    (3): SwinTransformerStage(\n      (downsample): PatchMerging(\n        (norm): LayerNorm((1536,), eps=1e-05, elementwise_affine=True)\n        (reduction): Linear(in_features=1536, out_features=768, bias=False)\n      )\n      (blocks): Sequential(\n        (0): SwinTransformerBlock(\n          (norm1): LayerNorm((768,), eps=1e-05, elementwise_affine=True)\n          (attn): WindowAttention(\n            (qkv): Linear(in_features=768, out_features=2304, bias=True)\n            (attn_drop): Dropout(p=0.0, inplace=False)\n            (proj): Linear(in_features=768, out_features=768, bias=True)\n            (proj_drop): Dropout(p=0.0, inplace=False)\n            (softmax): Softmax(dim=-1)\n          )\n          (drop_path1): DropPath(drop_prob=0.091)\n          (norm2): LayerNorm((768,), eps=1e-05, elementwise_affine=True)\n          (mlp): Mlp(\n            (fc1): Linear(in_features=768, out_features=3072, bias=True)\n            (act): GELU(approximate='none')\n            (drop1): Dropout(p=0.0, inplace=False)\n            (norm): Identity()\n            (fc2): Linear(in_features=3072, out_features=768, bias=True)\n            (drop2): Dropout(p=0.0, inplace=False)\n          )\n          (drop_path2): DropPath(drop_prob=0.091)\n        )\n        (1): SwinTransformerBlock(\n          (norm1): LayerNorm((768,), eps=1e-05, elementwise_affine=True)\n          (attn): WindowAttention(\n            (qkv): Linear(in_features=768, out_features=2304, bias=True)\n            (attn_drop): Dropout(p=0.0, inplace=False)\n            (proj): Linear(in_features=768, out_features=768, bias=True)\n            (proj_drop): Dropout(p=0.0, inplace=False)\n            (softmax): Softmax(dim=-1)\n          )\n          (drop_path1): DropPath(drop_prob=0.100)\n          (norm2): LayerNorm((768,), eps=1e-05, elementwise_affine=True)\n          (mlp): Mlp(\n            (fc1): Linear(in_features=768, out_features=3072, bias=True)\n            (act): GELU(approximate='none')\n            (drop1): Dropout(p=0.0, inplace=False)\n            (norm): Identity()\n            (fc2): Linear(in_features=3072, out_features=768, bias=True)\n            (drop2): Dropout(p=0.0, inplace=False)\n          )\n          (drop_path2): DropPath(drop_prob=0.100)\n        )\n      )\n    )\n  )\n  (norm): LayerNorm((768,), eps=1e-05, elementwise_affine=True)\n  (head): ClassifierHead(\n    (global_pool): SelectAdaptivePool2d(pool_type=avg, flatten=Identity())\n    (drop): Dropout(p=0.0, inplace=False)\n    (fc): Identity()\n    (flatten): Identity()\n  )\n)\n# Define image transformations\ntransform = T.Compose([\n    T.Resize((224, 224)),\n    T.ToTensor(),\n    T.Normalize(mean=[0.485, 0.456, 0.406], std=[
…
, backbone):\n        super().__init__()\n        self.backbone = backbone\n        \n    def forward(self, x1, x2):\n        # Get features from both images\n        features1 = self.backbone(x1)\n        features2 = self.backbone(x2)\n        \n        # Calculate cosine similarity\n        similarity = torch.nn.functional.cosine_similarity(features1, features2)\n        return similarity\n# Create the similarity model\nsimilarity_model = SimilarityModel(model).to(device)\nsimilarity_model.eval()\n\nSimilarityModel(\n  (backbone): SwinTransformer(\n    (patch_embed): PatchEmbed(\n      (proj): Conv2d(3, 96, kernel_size=(4, 4), stride=(4, 4))\n      (norm): LayerNorm((96,), eps=1e-05, elementwise_affine=True)\n    )\n    (layers): Sequential(\n      (0): SwinTransformerStage(\n        (downsample): Identity()\n        (blocks): Sequential(\n          (0): SwinTransformerBlock(\n            (norm1): LayerNorm((96,), eps=1e-05, elementwise_affine=True)\n            (attn): WindowAttention(\n              (qkv): Linear(in_features=96, out_features=288, bias=True)\n              (attn_drop): Dropout(p=0.0, inplace=False)\n              (proj): Linear(in_features=96, out_features=96, bias=True)\n              (proj_drop): Dropout(p=0.0, inplace=False)\n              (softmax): Softmax(dim=-1)\n            )\n            (drop_path1): Identity()\n            (norm2): LayerNorm((96,), eps=1e-05, elementwise_affine=True)\n            (mlp): Mlp(\n              (fc1): Linear(in_features=96, out_features=384, bias=True)\n              (act): GELU(approximate='none')\n              (drop1): Dropout(p=0.0, inplace=False)\n              (norm): Identity()\n              (fc2): Linear(in_features=384, out_features=96, bias=True)\n              (drop2): Dropout(p=0.0, inplace=False)\n            )\n            (drop_path2): Identity()\n          )\n          (1): SwinTransformerBlock(\n            (norm1): LayerNorm((96,), eps=1e-05, elementwise_affine=True)\n            (attn): WindowAttention(\n              (qkv): Linear(in_features=96, out_features=288, bias=True)\n              (attn_drop): Dropout(p=0.0, inplace=False)\n              (proj): Linear(in_features=96, out_features=96, bias=True)\n              (proj_drop): Dropout(p=0.0, inplace=False)\n              (softmax): Softmax(dim=-1)\n            )\n            (drop_path1): DropPath(drop_prob=0.009)\n            (norm2): LayerNorm((96,), eps=1e-05, elementwise_affine=True)\n            (mlp): Mlp(\n              (fc1): Linear(in_features=96, out_features=384, bias=True)\n              (act): GELU(approximate='none')\n              (drop1): Dropout(p=0.0, inplace=False)\n              (norm): Identity()\n              (fc2): Linear(in_features=384, out_features=96, bias=True)\n              (drop2): Dropout(p=0.0, inplace=False)\n            )\n            (drop_path2): DropPath(drop_prob=0.009)\n          )\n        )\n      )\n      (1): SwinTransformerStage(\n        (downsample): PatchMerging(\n          (norm): LayerNorm((384,), eps=1e-05, elementwise_affine=True)\n          (reduction): Linear(in_features=384, out_features=192, bias=False)\n        )\n        (blocks): Sequential(\n          (0): SwinTransformerBlock(\n            (norm1): LayerNorm((192,), eps=1e-05, elementwise_affine=True)\n            (attn): WindowAttention(\n              (qkv): Linear(in_features=192, out_features=576, bias=True)\n              (attn_drop): Dropout(p=0.0, inplace=False)\n              (proj): Linear(in_features=192, out_features=192, bias=True)\n              (proj_drop): Dropout(p=0.0, inplace=False)\n              (softmax): Softmax(dim=-1)\n            )\n            (drop_path1): DropPath(drop_prob=0.018)\n            (norm2): LayerNorm((192,), eps=1e-05, elementwise_affine=True)\n            (mlp): Mlp(\n              (fc1): Linear(in_features=192, out_features=768, bias=True)\n              (act): GELU(approximate='none')\n              (drop1): Dropout(p=0.0, inplace=False)\n              (norm): Identity()\n              (fc2): Linear(in_features=768, out_features=192, bias=True)\n              (drop2): Dropout(p=0.0, inplace=False)\n            )\n            (drop_path2): DropPath(drop_prob=0.018)\n          )\n          (1): SwinTransformerBlock(\n            (norm1): LayerNorm((192,), eps=1e-05, elementwise_affine=True)\n            (attn): WindowAttention(\n              (qkv): Linear(in_features=192, out_features=576, bias=True)\n              (attn_drop): Dropout(p=0.0, inplace=False)\n              (proj): Linear(in_features=192, out_features=192, bias=True)\n              (proj_drop): Dropout(p=0.0, inplace=False)\n              (softmax): Softmax(dim=-1)\n            )\n            (drop_path1): DropPath(drop_prob=0.027)\n            (norm2): LayerNorm((192,), eps=1e-05, elementwise_affine=True)\n            (mlp): Mlp(\n              (fc1): Linear(in_features=192, out_features=768, bias=True)\n              (act): GELU(approximate='none')\n              (drop1): Dropout(p=0.0, inplace=False)\n              (norm): Identity()\n              (fc2): Linear(in_features=768, out_features=192, bias=True)\n              (drop2): Dropout(p=0.0, inplace=False)\n            )\n            (drop_path2): DropPath(drop_prob=0.027)\n          )\n        )\n      )\n      (2): SwinTransformerStage(\n        (downsample): PatchMerging(\n          (norm): LayerNorm((768,), eps=1e-05, elementwise_affine=True)\n          (reduction): Linear(in_features=768, out_features=384, bias=False)\n        )\n        (blocks): Sequential(\n          (0): SwinTransformerBlock(\n            (norm1): LayerNorm((384,), eps=1e-05, elementwise_affine=True)\n            (attn): WindowAttention(\n              (qkv): Linear(in_features=384, out_features=1152, bias=True)\n              (attn_drop): Dropout(p=0.0, inplace=False)\n              (proj): Linear(in_features=384, out_features=384, bias=True)\n              (proj_drop): Dropout(p=0.0, inplace=False)\n              (softmax): Softmax(dim=-1)\n            )\n            (drop_path1): DropPath(drop_prob=0.036)\n            (norm2): LayerNorm((384,), eps=1e-05, elementwise_affine=True)\n            (mlp): Mlp(\n              (fc1): Linear(in_features=384, out_features=1536, bias=True)\n              (act): GELU(approximate='none')\n              (drop1): Dropout(p=0.0, inplace=False)\n              (norm): Identity()\n              (fc2): Linear(in_features=1536, out_features=384, bias=True)\n              (drop2): Dropout(p=0.0, inplace=False)\n            )\n            (drop_path2): DropPath(drop_prob=0.036)\n          )\n          (1): SwinTransformerBlock(\n            (norm1): LayerNorm((384,), eps=1e-05, elementwise_affine=True)\n            (attn): WindowAttention(\n              (qkv): Linear(in_features=384, out_features=1152, bias=True)\n              (attn_drop): Dropout(p=0.0, inplace=False)\n              (proj): Linear(in_features=384, out_features=384, bias=True)\n              (proj_drop): Dropout(p=0.0, inplace=False)\n              (softmax): Softmax(dim=-1)\n            )\n            (drop_path1): DropPath(drop_prob=0.045)\n            (norm2): LayerNorm((384,), eps=1e-05, elementwise_affine=True)\n            (mlp): Mlp(\n              (fc1): Linear(in_features=384, out_features=1536, bias=True)\n              (act): GELU(approximate='none')\n              (drop1): Dropout(p=0.0, inplace=False)\n              (norm): Identity()\n              (fc2): Linear(in_features=1536, out_features=384, bias=True)\n              (drop2): Dropout(p=0.0, inplace=False)\n            )\n            (drop_path2): DropPath(drop_prob=0.045)\n          )\n          (2): SwinTransformerBlock(\n            (norm1): LayerNorm((384,), eps=1e-05, elementwise_affine=True)\n            (attn): WindowAttention(\n              (qkv): Linear(in_features=384, out_features=1152, bias=True)\n              (attn_drop): Dropout(p=0.0, inplace=False)\n              (proj): Linear(in_features=384, out_features=384, bias=True)\n              (proj_drop): Dropout(p=0.0, inplace=False)\n              (softmax): Softmax(dim=-1)\n            )\n            (drop_path1): DropPath(drop_prob=0.055)\n            (norm2): LayerNorm((384,), eps=1e-05, elementwise_affine=True)\n            (mlp): Mlp(\n              (fc1): Linear(in_features=384, out_features=1536, bias=True)\n              (act): GELU(approximate='none')\n              (drop1): Dropout(p=0.0, inplace=False)\n              (norm): Identity()\n              (fc2): Linear(in_features=1536, out_features=384, bias=True)\n              (drop2): Dropout(p=0.0, inplace=False)\n            )\n            (drop_path2): DropPath(drop_prob=0.055)\n          )\n          (3): SwinTransformerBlock(\n            (norm1): LayerNorm((384,), eps=1e-05, elementwise_affine=True)\n            (attn): WindowAttention(\n              (qkv): Linear(in_features=384, out_features=1152, bias=True)\n              (attn_drop): Dropout(p=0.0, inplace=False)\n              (proj): Linear(in_features=384, out_features=384, bias=True)\n              (proj_drop): Dropout(p=0.0, inplace=False)\n              (softmax): Softmax(dim=-1)\n            )\n            (drop_path1): DropPath(drop_prob=0.064)\n            (norm2): LayerNorm((384,), eps=1e-05, elementwise_affine=True)\n            (mlp): Mlp(\n              (fc1): Linear(in_features=384, out_features=1536, bias=True)\n              (act): GELU(approximate='none')\n              (drop1): Dropout(p=0.0, inplace=False)\n              (norm): Identity()\n              (fc2): Linear(in_features=1536, out_features=384, bias=True)\n              (drop2): Dropout(p=0.0, inplace=False)\n            )\n            (drop_path2): DropPath(drop_prob=0.064)\n          )\n          (4): SwinTransformerBlock(\n            (norm1): LayerNorm((384,), eps=1e-05, elementwise_affine=True)\n            (attn): WindowAttention(\n              (qkv): Linear(in_features=384, out_features=1152, bias=True)\n              (attn_drop): Dropout(p=0.0, inplace=False)\n              (proj): Linear(in_features=384, out_features=384, bias=True)\n              (proj_drop): Dropout(p=0.0, inplace=False)\n              (softmax): Softmax(dim=-1)\n            )\n            (drop_path1): DropPath(drop_prob=0.073)\n            (norm2): LayerNorm((384,), eps=1e-05, elementwise_affine=True)\n            (mlp): Mlp(\n              (fc1): Linear(in_features=384, out_features=1536, bias=True)\n              (act): GELU(approximate='none')\n              (drop1): Dropout(p=0.0, inplace=False)\n              (norm): Identity()\n              (fc2): Linear(in_features=1536, out_features=384, bias=True)\n              (drop2): Dropout(p=0.0, inplace=False)\n            )\n            (drop_path2): DropPath(drop_prob=0.073)\n          )\n          (5): SwinTransformerBlock(\n            (norm1): LayerNorm((384,), eps=1e-05, elementwise_affine=True)\n            (attn): WindowAttention(\n              (qkv): Linear(in_features=384, out_features=1152, bias=True)\n              (attn_drop): Dropout(p=0.0, inplace=False)\n              (proj): Linear(in_features=384, out_features=384, bias=True)\n              (proj_drop): Dropout(p=0.0, inplace=False)\n              (softmax): Softmax(dim=-1)\n            )\n            (drop_path1): DropPath(drop_prob=0.082)\n            (norm2): LayerNorm((384,), eps=1e-05, elementwise_affine=True)\n            (mlp): Mlp(\n              (fc1): Linear(in_features=384, out_features=1536, bias=True)\n              (act): GELU(approximate='none')\n              (drop1): Dropout(p=0.0, inplace=False)\n              (norm): Identity()\n              (fc2): Linear(in_features=1536, out_features=384, bias=True)\n              (drop2): Dropout(p=0.0, inplace=False)\n            )\n            (drop_path2): DropPath(drop_prob=0.082)\n          )\n        )\n      )\n      (3): SwinTransformerStage(\n        (downsample): PatchMerging(\n          (norm): LayerNorm((1536,), eps=1e-05, elementwise_affine=True)\n          (reduction): Linear(in_features=1536, out_features=768, bias=False)\n        )\n        (blocks): Sequential(\n          (0): SwinTransformerBlock(\n            (norm1): LayerNorm((768,), eps=1e-05, elementwise_affine=True)\n            (attn): WindowAttention(\n              (qkv): Linear(in_features=768, out_features=2304, bias=True)\n              (attn_drop): Dropout(p=0.0, inplace=False)\n              (proj): Linear(in_features=768, out_features=768, bias=True)\n              (proj_drop): Dropout(p=0.0, inplace=False)\n              (softmax): Softmax(dim=-1)\n            )\n            (drop_path1): DropPath(drop_prob=0.091)\n            (norm2): LayerNorm((768,), eps=1e-05, elementwise_affine=True)\n            (mlp): Mlp(\n              (fc1): Linear(in_features=768, out_features=3072, bias=True)\n              (act): GELU(approximate='none')\n              (drop1): Dropout(p=0.0, inplace=False)\n              (norm): Identity()\n              (fc2): Linear(in_features=3072, out_features=768, bias=True)\n              (drop2): Dropout(p=0.0, inplace=False)\n            )\n            (drop_path2): DropPath(drop_prob=0.091)\n          )\n          (1): SwinTransformerBlock(\n            (norm1): LayerNorm((768,), eps=1e-05, elementwise_affine=True)\n            (attn): WindowAttention(\n              (qkv): Linear(in_features=768, out_features=2304, bias=True)\n              (attn_drop): Dropout(p=0.0, inplace=False)\n              (proj): Linear(in_features=768, out_features=768, bias=True)\n              (proj_drop): Dropout(p=0.0, inplace=False)\n              (softmax): Softmax(dim=-1)\n            )\n            (drop_path1): DropPath(drop_prob=0.100)\n            (norm2): LayerNorm((768,), eps=1e-05, elementwise_affine=True)\n            (mlp): Mlp(\n              (fc1): Linear(in_features=768, out_features=3072, bias=True)\n              (act): GELU(approximate='none')\n              (drop1): Dropout(p=0.0, inplace=False)\n              (norm): Identity()\n              (fc2): Linear(in_features=3072, out_features=768, bias=True)\n              (drop2): Dropout(p=0.0, inplace=False)\n            )\n            (drop_path2): DropPath(drop_prob=0.100)\n          )\n        )\n      )\n    )\n    (norm): LayerNorm((768,), eps=1e-05, elementwise_affine=True)\n    (head): ClassifierHead(\n      (global_pool): SelectAdaptivePool2d(pool_type=avg, flatten=Identity())\n      (drop): Dropout(p=0.0, inplace=False)\n      (fc): Identity()\n      (flatten): Identity()\n    )\n  )\n)",
    "crumbs": [
      "Occlusion Sensitivity"
    ]
  },
  {
    "objectID": "00_attribution.html#occlusion-sensitivity",
    "href": "00_attribution.html#occlusion-sensitivity",
…
